finalmodel.pt (torch, 58639 bytes, 8 tensors)

c1.weight f4 [10, 3, 5, 5]
00000000: ab07 df3d 038d d23c 137f e33d 935b cc3d
00000010: 734c 8b3d 177c 323c 66ac bf3d 3d60 843c
00000020: 4153 19bd 43fc 7c3c 0d77 9abc fc95 ad3d
00000030: 1a5d 85bd ae61 103c 1c97 b63c 6760 be3d
00000040: 23fb cd3c 7936 8a3d 130a 943b 720d aebd
00000050: f9c5 813d 8ee1 9abd dfe1 9ebb 57d6 5e3d
00000060: e7ac 3e3b 49c7 e9bd 4f74 5e3d 2bf0 f73b
00000070: 3371 56bd cbe7 45bc b4eb 54bd 0270 d8bd
00000080: 7e57 c7bc 455b e73c 1df1 d6bd 36de ca3d
00000090: a33a 6bbd 1211 e33d be89 6f3d 1941 8d3d
000000a0: 751b 9f3d f0a6 c33d 9f91 95bd 9f84 e2bd
000000b0: eaa9 a23d 5e39 d03d b3bf db3d a0b5 e23d
000000c0: 651c 313c 441b 893d afe4 e7bc ed00 12bd
000000d0: 6b61 c8bc 0e36 8d3d 41cb a13c 4b09 95bd
000000e0: 3a3d 113d 64ea e3bc 5252 e53c f333 8d3d
000000f0: a069 e93d 2bfd f33a 7ee0 b93b d4b3 ce3d
00000100: bc52 453d e9db 9dbd c72d e53d 1d44 2a3d
00000110: 5266 08bd 7661 8c3d 19ef 28bd 3147 bdbd
00000120: 7cf1 3c3b 333d 343d 8864 803c 7bd1 183b
00000130: eb20 cabd 042c 95bc b290 313d eb5b d73d
00000140: 9c7f b5bd b767 95bd 74a7 73bd 3acc 213d
00000150: 446a dc3d 7bbb 623d 523b b73d a924 30bd
00000160: 08ff 8c3d 6b24 e73d 9db4 8f3d db75 d0bd
00000170: ba25 a5bd ffa4 b8bd 82e7 6a3d a0f2 7cbc
00000180: b207 da3d 2c99 39bd 9f7f 093d 11bc d1bc
00000190: e143 ac3d 1a8a 873d 58d4 f9bb 0ca4 0c3d
000001a0: 481d b33d 6517 11bb 3881 b93d a0f8 53ba
000001b0: fa1b ed3c a119 8e3d a66a b1bd 496d b63d
000001c0: 8128 743d 3d9a 55bd e09e 713d 023c a33d
000001d0: 8a75 93bd 59a2 2f3d 1728 de3c 63ca e7bd
000001e0: 5307 023d e15e 2cbd a86d 12bd e1cc 57bd
000001f0: 2614 b83d 9d9d a43d 9075 54bc 2f40 a1b9
00000200: 3452 46bd 73ee de3a ee38 4f3b 893e debd
00000210: 7d43 a1bd a558 5b3c b4b7 ebbc 77dd febc
00000220: 8a07 673d 42bb a1bd 82ec 943d 0386 b0bd
00000230: 553a d4bd 3683 debd f0cd 323d 10e1 d03d
00000240: a970 243d 8af1 a73d 5f95 c53d 2dfc c5bd
00000250: 8aaa 8d3d 95d6 a43d 1a21 cc3d cddc c83d
00000260: 46e4 bcbd 1cf2 ec3c 87ec 94bc 6caf 84bd
00000270: 826b f0bc c8b7 39bd 0bcc cb3d 4c2b d3bc
00000280: 99fa d9bd f598 d3bd 689f 09bd 37d7 9f3d
00000290: ac73 ce3d aa8c 37bd d9e1 8e3d 6d98 59bd
000002a0: 55d7 e4bc c0a2 97bd cb16 36bd 1a1a b5bc
000002b0: 389a ad3d eca5 dc3d ed3d aabd eccd 77bd
000002c0: 06f9 6c3d 6b6e aebd 46db 9dbc f880 913d
000002d0: df3f c9bd 81f2 f73b e011 da3c ca5e af3d
000002e0: 5a55 83bd b683 c23d 0e20 65bd 48ff ac3d
000002f0: 232b e73d 9d95 c6bd 1246 8b3d 3c39 433c
00000300: 0e67 dc3d acc3 f1bb 1232 a33d b934 393d
00000310: f72c 2d3d 3718 c23b a8dc ba3c 1ad4 383d
00000320: 7d37 aabc 69d9 83bd 6a12 063d be5c c9bd
00000330: 6705 7bbb 1ba4 663d 65f9 94bd 38f2 b43d
00000340: 49f0 37bb 003e 023c 20fb 9dbc 547b 09bd
00000350: 23eb 3f3d 6538 c33c e626 c6ba e6e1 393c
00000360: 9cdb af3c 21f8 ccbd 6d31 f33c 5b39 373d
00000370: be4f ebbd 342e d93c 2844 f2bc a14b d5bd
00000380: 4f0e 553d 4d71 a83d 341d 7c3d 5ae2 e03d
00000390: 2acc fbbc 7f50 c4ba 9df4 9ebd 404d 5e3d
000003a0: b8fc 653d 0e80 dfbd 84ef 8e3d 8ebe 66bd
000003b0: 638c a23c 649c 513d 9a3c d33d 17c1 ddbd
000003c0: fe53 e7bd bc6a 623d 624e 833d 149a 173d
000003d0: af79 00bd 8a83 cebd da0f b4bd e981 923d
000003e0: aa1d 153d 5813 bfbc 3d0c c83d b454 3ebd
000003f0: 0639 d53d 17b2 4fbd ecc4 da3c 888e b4bb
0.108901344 0.025702005 0.11108222 0.09978404 0.06801691 0.010893843 0.09359054 0.016159171
-0.037432913 0.015441003 -0.018855596 0.08475873 -0.06511898 0.008812351 0.022288851 0.09295731
0.025144165 0.06748671 0.0045178025 -0.08498658 0.063365884 -0.075625524 -0.0048487033 0.05440363
0.0029094757 -0.11414964 0.05431014 0.007566472 -0.05235405 -0.0120791895 -0.051982597 -0.10568239
-0.024333712 0.028241763 -0.104952075 0.099056646 -0.057428967 0.1108724 0.05848097 0.06897182
0.07768909 0.09553325 -0.07303166 -0.11060452 0.07942565 0.10167192 0.10729923 0.110697985
0.010809992 0.06694654 -0.028307287 -0.035645414 -0.024460515 0.06895076 0.01975024 -0.07277163
0.03545878 -0.027821727 0.027993355 0.06894674 0.113970995 0.0018614879 0.0056725135 0.10092893
0.048174605 -0.0770796 0.11190372 0.041568864 -0.033300705 0.06854527 -0.041243646 -0.09242094
0.002883046 0.044003677 0.015672937 0.002331822 -0.0986956 -0.018209465 0.043350883 0.10515579
-0.0886223 -0.07295173 -0.059485868 0.039501406 0.10762456 0.055354577 0.08946861 -0.04300371
0.06884581 0.11286243 0.07016871 -0.10178729 -0.080638364 -0.090158455 0.05734969 -0.015438706
0.10645999 -0.04531209 0.033568975 -0.025602372 0.084113844 0.06618138 -0.0076241903 0.034336135
0.08745819 -0.0022139188 0.0905785 -0.0008086059 0.028944004 0.06938482 -0.0866292 0.08907563
0.05960894 -0.052149046 0.058989406 0.0797043 -0.07200153 0.042879436 0.027118726 -0.11317899
0.031745266 -0.04208267 -0.035749108 -0.052685622 0.08988218 0.08037875 -0.012967482 -0.00030756133
-0.04841824 0.0017008319 0.0031619626 -0.108517714 -0.078742005 0.013387834 -0.02877412 -0.031111462
0.056403674 -0.07897045 0.07271673 -0.08619311 -0.103626885 -0.1086487 0.04365343 0.10199177
0.040146504 0.08200367 0.09647631 -0.09667239 0.06917293 0.08048741 0.09967251 0.098077394
-0.09223227 0.02892404 -0.018179191 -0.064787716 -0.029348139 -0.045341283 0.099510275 -0.025777481
-0.10643501 -0.103319086 -0.033599287 0.07804721 0.100806564 -0.044811882 0.06976671 -0.05312388
-0.02793471 -0.07404089 -0.04445533 -0.022107173 0.084766805 0.107738346 -0.08312593 -0.060499117
0.057854675 -0.08517154 -0.019269597 0.07104677 -0.098266356 0.0075667505 0.026619852 0.085630015
-0.06412764 0.09497778 -0.055938773 0.084471285 0.112875246 -0.09696505 0.06800474 0.011915501
0.107618436 -0.0073780622 0.079685345 0.045216296 0.04227921 0.005923297 0.022810295 0.04512415
-0.020778412 -0.06437952 0.032732405 -0.09832142 -0.003830278 0.056308847 -0.07274131 0.08835262
-0.0028066805 0.007949352 -0.019284785 -0.03356488 0.046855103 0.023830602 -0.0015117794 0.011345362
0.021467023 -0.10008264 0.029686654 0.044732433 -0.11489819 0.02651129 -0.029573515 -0.10414816
0.0520156 0.082247354 0.061551288 0.10980673 -0.030737001 -0.0014977603 -0.077615 0.05427289
0.056149215 -0.10913096 0.06979278 -0.05633407 0.019842332 0.051174536 0.10314293 -0.108278446
-0.11295317 0.05527757 0.06411435 0.037012175 -0.031366047 -0.10083683 -0.08792086 0.07153685
0.036405243 -0.023324654 0.09767959 -0.046467498 0.10411267 -0.05070695 0.026705228 -0.005510155

c1.bias f4 [10]
00000000: d1cb eb3d e586 953d 07cd 46bd da5d d53d
00000010: 7a0a d13d b2bd dd3d 9d99 c73d 8ec8 863c
00000020: a4eb b53d 3c86 2a3d
0.11513484 0.0730112 -0.048535373 0.104182914 0.10207076 0.10827197 0.09746096 0.016453054
0.088828355 0.041631922

c2.weight f4 [20, 10, 2, 2]
00000000: 0c7b a8bd 4b74 193e 1214 123d 2dda ebbd
00000010: 06ea 5dbd 596e 86bd fe8c 0a3c 6b27 3a3d
00000020: f976 00be 87a3 0f3e ecb8 9ebd ae20 a53b
00000030: cedb 6a3d 189a 99bd 6a60 0a3d 9879 443d
00000040: dbf4 25bd d1cc dcbd 6943 d83d 41fe 35bd
00000050: 7064 163e 0acf fa3d 7b2f e9bd cd61 773d
00000060: 8468 9f3c 2bc2 063e ecf5 e0bd d19e a7bc
00000070: 6cae b13b ab6c fd3d a8e1 d83c 3cf2 c9bd
00000080: ac26 dfbc c590 0f3e be2e 9cbd 3c5c 113d
00000090: 9818 b33c 7473 653d 801e f93b 91ba 81bd
000000a0: 2df9 5bbc 5c8e 0939 463c 123e cb24 f7bd
000000b0: 8462 f53d 9a71 9d3d 2978 123e ae7a bf3d
000000c0: b514 b1bd cf6c 1e3e 0fba 313c 5642 ecbd
000000d0: dc25 853d 5873 f9bd 142d fbbd db8b 13bd
000000e0: 0df3 7fbd b685 ea3d 8aac 893c f102 243d
000000f0: 20e6 b4bd 509b 44bd 893e 8b3d 12f6 bbbd
00000100: 63cc f73d 5654 873b 7fc2 6bbc f1ae bdbd
00000110: a0b8 353d a6b6 80bd 55de a53d c009 83bc
00000120: 9677 093e 4cc1 aebd 2c7c 813d 2d72 df3d
00000130: f909 a43d cfdc 9ebd e52a 163e bf51 0dbe
00000140: 1aa3 86bd 7303 123e 86a4 d6bd 0364 26bd
00000150: 8138 31bd ee46 d03d 9aa6 c53d 8e1d 2ebd
00000160: 0984 793d b926 11bd a62e 91bd 9153 1f3e
00000170: 5166 a13d e665 873d 4108 de3d 30f9 e83c
00000180: 5794 75bb e1dd fb3d da79 e83d d78b 19be
00000190: 028c f93d 57a5 bdbb 8eff 063e 1330 05be
000001a0: 3fc5 053e a3b2 e13b 8593 01be b2dd 4d3d
000001b0: b618 cdbc 7f21 1d3e e478 63bd 84cc 8b3c
000001c0: eb9e 14be 882e a73d 59de c33d 2208 dc3b
000001d0: 9a55 c73d c3b2 183e e695 15be a070 193c
000001e0: 0dd4 5cbd ef7e 3cbc 87d4 d23d 8a9c 893d
000001f0: 2a44 95bc 0547 353c e5ff 0abe bc3b 023e
00000200: 62e9 4b3d 0f29 ecbd 6a40 d1bd 63df 8a3d
00000210: fb4e e63d 7423 18be b7df 8cbc 8774 aa3d
00000220: e600 b03d f527 a5bb 043a 103d e21d 9ebd
00000230: 8416 543d eca5 5f3d 554b 3f3d ac01 a43d
00000240: 614f 0b3d 40c9 eeb8 ea57 713d 7ee2 40bd
00000250: 1915 853d 5ac3 053e caed 833c 6010 98bd
00000260: caf9 8cbd 6b1f dcbd d549 013d 1596 c73c
00000270: c18d 073e b8ac ebbd a3b9 02be 25a3 113e
00000280: a68d 133e 6040 c6bd c556 80bd a4cb 1dbd
00000290: 94dd 14be 8583 15be 0d6d 103d 355c 193e
000002a0: 2de3 04be 2587 3f3d 0b07 ccbd 4a17 d83c
000002b0: 7aee d73d 79e2 693d 1bff f63d df96 bc3c
000002c0: fa26 d7bd 1a11 1a3e 0473 903d d238 c03d
000002d0: 14c9 65bd 411e 09be 471c 0dbe 337d cebd
000002e0: a43e fa3d a641 1f3d 1c11 823d 37bf de3b
000002f0: c392 5b3d afff 013e e3bd d2bd 6189 b53d
00000300: 55b7 2d3c 923e 29bc f52f 75bd fc8e da3d
00000310: fcbe c73b 9e6e ce3d aa14 a03d 3031 d33c
00000320: 5d29 d83d ae76 9d3d be32 fa3d e896 fe3d
00000330: da50 aabb 3405 d9bd 227a 9f3d 9b89 e13c
00000340: d3bd db3c 38bf 803d 56e2 953d 6859 ad3c
00000350: 8a6d 6c3d 41e6 ec3d 3823 bb3c 2409 1ebe
00000360: 5844 02be e281 003e 9908 01bd 4b0b b03d
00000370: 16ec 01be 2ea8 4d3d 562f 05be 0788 e6bc
00000380: 07d0 153e 2466 fbba 36e3 603c 6865 ea3a
00000390: 0c04 833d e5ff 203e 90bc cb3d 6ede b0bd
000003a0: fd3a 20be 3e4d 08be d55f e4bd 6edc 983d
000003b0: 4e46 c13a 4c39 41bd 0869 0abe b9a5 013e
000003c0: 8ac4 18be ce2e d2bd 588c 07be 16d0 ecbd
000003d0: 40b8 d83b 360d 49bd b768 073e 5cda 823d
000003e0: c134 123e 601a 413c 2cc7 fbbd 4584 c1bd
000003f0: 588c ea3c 1858 f03c e72a 04be 6abd e03d
-0.08226594 0.14985768 0.03566367 -0.11516223 -0.05417826 -0.06564016 0.008456467 0.04544775
-0.12545384 0.14027224 -0.07750115 0.005039296 0.05733853 -0.07500094 0.033783354 0.047967523
-0.040516715 -0.10781253 0.105597325 -0.04443193 0.14686751 0.12246521 -0.11386009 0.060396004
0.019459017 0.13160007 -0.10984406 -0.020461472 0.005422404 0.123742424 0.026474789 -0.09860656
-0.02724012 0.14020069 -0.07626103 0.035488352 0.021862313 0.056018308 0.007602513 -0.06334413
-0.013426107 0.00013118371 0.14280805 -0.120675646 0.11981681 0.076876834 0.1430365 0.09349571
-0.08646528 0.15471195 0.0108475825 -0.1153609 0.06501362 -0.12180203 -0.12264457 -0.03602205
-0.06248765 0.114512846 0.016805906 0.040041868 -0.08832955 -0.04799968 0.06799037 -0.091777936
0.120995305 0.0041299267 -0.014389633 -0.09261883 0.044365525 -0.062848374 0.08099047 -0.01599586
0.13424525 -0.08532962 0.06322512 0.10910449 0.08009715 -0.0775696 0.146648 -0.13800715
-0.06574078 0.14259128 -0.10480599 -0.040622722 -0.043266777 0.10169779 0.09650917 -0.042508654
0.060916934 -0.03543732 -0.070889756 0.15559222 0.078808434 0.066112325 0.10841418 0.028439134
-0.003747245 0.122981794 0.11351366 -0.14994751 0.121849075 -0.0057875323 0.13183424 -0.1300662
0.13063525 0.0068877502 -0.1265393 0.050260253 -0.025036197 0.15344809 -0.055535212 0.017065294
-0.14513747 0.08163172 0.09563894 0.0067148367 0.09733124 0.14911942 -0.14607963 0.009365231
-0.053913165 -0.011504873 0.102944426 0.067193106 -0.01822098 0.011064296 -0.13574179 0.127181
0.049783118 -0.11531269 -0.10217364 0.06780889 0.11245533 -0.14857274 -0.01719652 0.08323007
0.08593921 -0.0050401636 0.035211578 -0.077205434 0.051779285 0.054601595 0.0467027 0.080081314
0.03401125 -0.0001138621 0.058921732 -0.047091 0.06498165 0.13062802 0.016104598 -0.07424998
-0.06883581 -0.1074818 0.031564552 0.024363557 0.13237669 -0.11507553 -0.12766127 0.14222391
0.14409503 -0.09680247 -0.0626655 -0.038524285 -0.1453765 -0.14600952 0.03526025 0.1497658
-0.12977286 0.046759743 -0.09962281 0.026378293 0.10543533 0.057100747 0.12060376 0.02302116
-0.10505481 0.15045586 0.070531875 0.093858376 -0.056099966 -0.13390447 -0.13780318 -0.100824736
0.12218979 0.038880967 0.063509196 0.006797697 0.05360676 0.12695192 -0.10290124 0.088640936
0.010602792 -0.010329859 -0.05986019 0.10671803 0.006095765 0.10079692 0.07816441 0.02578029
0.105547644 0.07688652 0.122167096 0.12431127 -0.0051976265 -0.105966955 0.07786967 0.027531436
0.026823914 0.06286472 0.07318561 0.021160796 0.057721652 0.11567355 0.022843942 -0.15433174
-0.12721384 0.12549546 -0.03150234 0.08595904 -0.12687716 0.050209217 -0.13006338 -0.028141035
0.14630137 -0.001918022 0.013726046 0.0017883005 0.06397256 0.15722616 0.09948075 -0.08636175
-0.15647502 -0.13310716 -0.11151091 0.074639186 0.0014745684 -0.047173783 -0.13516629 0.12660874
-0.14918724 -0.102628335 -0.1323713 -0.11563127 0.006613761 -0.049084865 0.1322354 0.06389305
0.14277937 0.011786073 -0.122938484 -0.094490565 0.028631374 0.029338881 -0.12906991 0.10973628

c2.bias f4 [20]
00000000: 2117 acbd a82f 0fbe fb16 a33d edbb 6fbd
00000010: 466a ee3d 076c 773d 65fb 0e3e ce58 e7bd
00000020: 9628 0b3e 4416 c1bd f58c 1f3e 1c0e 843d
00000030: fccc 8bbb 4cf4 3dbd fda4 8dbd caa0 febd
00000040: 84d5 863d c0ad f73d 2040 dbbc e1b0 6dbd
-0.08402849 -0.13983023 0.079633676 -0.05852883 0.11641364 0.060405757 0.13963087 -0.11296235
0.13589701 -0.09428075 0.15581115 0.06448004 -0.0042663794 -0.046375558 -0.06916235 -0.12433012
0.065836936 0.12093687 -0.026763976 -0.058030013

lin1.weight f4 [150, 80]
00000000: f62d 8cbd c459 d1bd 78a5 17bc fb9d d23d
00000010: 70ad d5bb 036a d1bd e4dc 973d 4827 87bd
00000020: ccf5 833d 86fd 8b3d 712f b6bd c0e7 46bd
00000030: e645 8b3c bcaa f33c aefe 003d 3676 76bd
00000040: cef6 99bd cd33 803d 99cf 4d3d b2b9 a5bd
00000050: 510c cabd aadb 69bd 844e 7cbd 4b2d b6bc
00000060: 0294 c0bd 68ea b33c 84e2 de3d 7052 463c
00000070: c0f7 aa3d acc5 4d3d 04f5 293d e0f4 8a3d
00000080: 2ce2 a93d fe63 0ebb e359 8bbd 4adc 193d
00000090: 5d8c 843d 79e3 26bd ecee 04bd da1a 9cbc
000000a0: 6185 6f3d 43cb fabc 9f2e 3a3d ea52 acbc
000000b0: 6a5d b4bd 7f69 163d 1232 c6bd 9d2b ddbd
000000c0: 06f9 be3d 96a7 413d 2b1d 963d 6858 89bd
000000d0: a0b0 24bd c68b bc3d a0cb 04bb 14de 5f3d
000000e0: 9296 a23d c4d2 9fbd f64d d5bd 73cf de3c
000000f0: ca1b 48bd 9894 ab3c 6019 dfbd 667e 8e3d
00000100: 64df 2a3d f8ce bfbd 00c4 5abd 143f 4e3d
00000110: 8988 ffbc 273e 57bc 269b 1cbd 7ef5 cd3d
00000120: 0054 89bd d4ad 88bc 9c53 2d3d 902e 933c
00000130: 7017 56bd a486 cb3b 2d25 80bd d5f5 1dbd
00000140: 426a 84bd e7ce 61bd ee26 10bd 33d0 9e3d
00000150: 3cf8 a6bd 0375 dbbd f740 c83c d1b6 b23d
00000160: cce9 d2bd 5cdd 633c 4cf2 fcbc 3234 b73d
00000170: 1b55 b23d 586e 143b c46a c2bd c514 85bd
00000180: 8d66 bfbd 06b5 943c ad75 f6bc 441e 3ebd
00000190: 129d 993d a0c7 b53d 542f 3d3d 336b 8fbd
000001a0: 38c5 76bc 0a26 38bd 4037 a63b 18ac 04bc
000001b0: 3a82 c43d f8d1 46bd fc3b 8e3d 305d 9b3c
000001c0: 1c35 2ebd 31a6 e13d 2b39 9fbd 6dc0 a13d
000001d0: 18b0 debc 4dc0 8fbc 2b6e 563d d24e dc3d
000001e0: 8f95 55bd 34a8 b8bc ceb4 bcbd 00da df3d
000001f0: 965e 82bc d164 c73c 833a c6bc 915d 7b3d
00000200: 2b3c ce3d 1ddb 9b3d 7be3 c939 a2c0 993b
00000210: a8ad ff3c c0ba 9e3d c949 83bd e77d 73bd
00000220: 4524 05bc 9ecc 9cbc d101 99bd 2cf9 9dbd
00000230: 7020 f63c b0eb 35bd e055 90bc 4400 ce3d
00000240: 6064 bc3d 6449 423d a4d0 233d 6051 a0bb
00000250: eabd df3d d56d 33bd 57f6 b23c 2a80 1e3d
00000260: e0ac 8abc 38df 9fbd 3cc4 e23d 66b7 913d
00000270: 26ae cd3d ba5f 4dbd 445f c3bc 070e 7e3d
00000280: 4e59 b83d 68ec b93c a3d0 d0bd eb06 5ebd
00000290: c504 523d 65ff 303d b52e e23d 606c ac3d
000002a0: 2e69 c23d de3d b1bd 68d4 6fbc 2f7f e4bd
000002b0: 2723 a3bd 4df7 c4bd 27b3 89bd 5580 b23c
000002c0: 9c83 db3c 09b8 81bd 3847 1cbd de05 d3bd
000002d0: 69cc 97bc 8be5 903d 6e56 57bb a1ab d03d
000002e0: 88ea c83c e897 973d 7ac6 ba3d 88e1 463c
000002f0: 5b33 73bd 0b65 b7bd 7641 8f3d 6048 3b3c
00000300: 130b cb3d 516a 9fbd ee15 5bbc e8f6 bb3c
00000310: 3cfc ce3d 8c17 b9bd ddd4 a5bd a73d 4fbd
00000320: 738b 62bd 87df 8a3d 6c1f a7bd 09ec 4a3d
00000330: ea30 bbbd 79d9 393d 6b31 d6bc 0601 59bd
00000340: 0766 903c fb6c bd3c fe1f 843d aa4e efbc
00000350: 20e4 b1bb 7a1c dc3d eea2 853d ec5e f4bc
00000360: 184c 38bc 54cd 943c 8096 96bc ab93 bbbd
00000370: 8c7c 95bc 8803 a4bd 08f3 06bc aece d93d
00000380: d428 32bd 21da cbbd b003 ef3c d02d 793d
00000390: dab2 923d 6deb 9abd 9119 9dbd 0fce 113d
000003a0: b86d 21bc 1815 ea3c d4bf 3ebd 84be a1bd
000003b0: b80b 31bd 5550 d4bd 8aee 403c a92c 913c
000003c0: f49b df3d 5a19 9cbd dd13 6e3c 434c c6bd
000003d0: b40f 6d3d 7047 b03d 4538 c43d 8705 5d3c
000003e0: e0c3 2b3d e6dd de3d d9c0 d23d d3ae 99bc
000003f0: 3d5d b13d 69ba 6b3d f349 c8bc fef4 ba3d
-0.06844704 -0.102221996 -0.009255759 0.10284039 -0.0065209195 -0.10225298 0.074151784 -0.06599289
0.064433664 0.06835465 -0.088957675 -0.048560858 0.017001104 0.029744498 0.03149288 -0.06017133
-0.075177774 0.0625988 0.05024681 -0.08092059 -0.098656304 -0.057094254 -0.061598316 -0.022238394
-0.0940323 0.02196236 0.10883048 0.012104616 0.08348036 0.050237343 0.04149343 0.067849874
0.08295092 -0.002172708 -0.06804254 0.0375636 0.06472085 -0.04074428 -0.032454416 -0.019055773
0.05847681 -0.0306145 0.045454618 -0.02103563 -0.0880688 0.036721703 -0.09677519 -0.10799334
0.09324841 0.047278963 0.07329782 -0.06706315 -0.040207505 0.09206347 -0.0020262972 0.05465515
0.07938875 -0.07803872 -0.104152605 0.027198529 -0.048854627 0.020944878 -0.10893512 0.06957702
0.04171695 -0.09365648 -0.053409576 0.050353125 -0.031193035 -0.013137377 -0.0382339 0.100565895
-0.06705475 -0.01668445 0.042316064 0.017966539 -0.052268445 0.006211119 -0.06257091 -0.03856452
-0.064655796 -0.055128958 -0.035193376 0.077545546 -0.08152816 -0.107156776 0.02444504 0.08726276
-0.102984995 0.013907757 -0.030877255 0.08945502 0.08707639 0.0022648778 -0.0949302 -0.06498102
-0.09345732 0.018152725 -0.030085409 -0.046415582 0.07500662 0.08875966 0.046187714 -0.070028685
-0.015061669 -0.044958152 0.0050725043 -0.008097671 0.09595151 -0.048540086 0.06945035 0.018965334
-0.042531118 0.110180266 -0.07774576 0.078980304 -0.027183577 -0.01754775 0.052351158 0.10757221
-0.052144583 -0.022541143 -0.09214173 0.10930252 -0.015914243 0.024340065 -0.024197822 0.06136853
0.1007007 0.07610152 0.00038507194 0.004692153 0.031210735 0.077504635 -0.06410558 -0.05944624
-0.008126323 -0.019140538 -0.074710496 -0.077135414 0.030044764 -0.044414222 -0.017619073 0.100586444
0.091988325 0.047433272 0.039993897 -0.004892513 0.10924895 -0.043805916 0.02184598 0.038696446
-0.016928136 -0.078062475 0.11072585 0.071150586 0.10042982 -0.05014012 -0.023849137 0.062025096
0.090014085 0.022695735 -0.10196044 -0.054205816 0.05127408 0.043212313 0.11044065 0.084191084
0.09492718 -0.08654378 -0.014638044 -0.11157071 -0.07965689 -0.096174814 -0.06723624 0.02178971
0.026796155 -0.0633393 -0.038153857 -0.103038535 -0.018530088 0.07075032 -0.0032857913 0.101889856
0.024525896 0.07402021 0.09119888 0.012138732 -0.05937515 -0.08954819 0.069949076 0.01143083
0.099142216 -0.0778395 -0.013371928 0.022944883 0.10106704 -0.09037694 -0.08097241 -0.050595906
-0.05530877 0.06780916 -0.0816029 0.049541507 -0.09140189 0.045373414 -0.026146611 -0.05297949
0.017626775 0.023123255 0.064514145 -0.029212315 -0.005428806 0.10747619 0.06525217 -0.029830419
-0.011248611 0.018164314 -0.01838231 -0.09159025 -0.018247865 -0.08008486 -0.008236654 0.10635124
-0.043495968 -0.09953714 0.029176563 0.060834706 0.071630195 -0.07564435 -0.07670892 0.035596903
-0.009852819 0.028574511 -0.04656966 -0.07897666 -0.043224066 -0.103668846 0.011775622 0.017721491
0.109184176 -0.07622023 0.014531103 -0.096825145 0.057876304 0.086073756 0.09581045 0.013490087
0.041934848 0.108821675 0.10290689 -0.01876012 0.08660362 0.05755082 -0.024449324 0.0912876

lin1.bias f4 [150]
00000000: 353c 383d 3c9b 653d df5b d9bd ea80 dc3d
00000010: 0b22 21bd 1e8f cdbd 09d9 dbbd 88ae e0bb
00000020: 75f3 d7bd fcb3 94bd ae87 843d 3c59 d23c
00000030: 2275 2e3d 7618 3f3d 2929 cabc adc2 d4bd
00000040: 1f77 5d3b 4eb8 89bd 9294 aebc 6b4b c9bd
00000050: fba6 98bd ac29 843d 471b 833d b0e0 47bc
00000060: f41d cc3d 7b89 fe3c da19 ac3d 3987 ac3d
00000070: da7b ae3d 8a8f 35bd d9a2 d93b f999 613d
00000080: ab82 07bd ffad 013d 27cd 5fbd f99f 8c3d
00000090: d0cc 20bd fcd1 d23c 785b a8bb 3db2 a83c
000000a0: 3504 b83d 4a7a 933d 818f 0d3b f972 973d
000000b0: 73a9 82bd dcb7 c33d 684c 743d 497e 403c
000000c0: 39a2 773d fcf7 483c b2a8 513d efba 0e3d
000000d0: c80e 593d 5695 9d3c 07d3 09bd 99b6 213d
000000e0: 4b96 a53c ad9c c33d f103 693c 3eb2 3cbc
000000f0: cce9 8ebd e368 8ebd 6401 003d a0d7 ac3c
00000100: 5a49 7f3d 36c5 cfba 0362 a13d 58d4 68bd
00000110: 2e64 d83d 7fdb c4bd 9477 a6bc b9b6 94bd
00000120: b867 c0bd e389 c1bd 00b6 d93d c531 9cbd
00000130: 7dfe b83d 15aa 3cbd 93e0 d93d 6282 75bd
00000140: fb6b d1bd 8144 a8bd 83e3 da3d 7ed0 8ebd
00000150: 2394 ae3c 3faf 1c3d 031e fabc c0e3 14bd
00000160: 3210 4b3c dd1b 5b3d f932 16bd 269e bbbd
00000170: 4a6d a7bc cc63 373d 8dbc 2c3d f18b 083d
00000180: 0e7e c4bd 37ea cb3d bbaf 3fbd 91ab 393d
00000190: 3c38 02bc 7ced ae3d aa76 05bc 94d1 51bd
000001a0: 1e56 f2bb b900 093d 0e72 963d c499 cd3d
000001b0: 15c8 90bd 8901 703c febf 4dbd 4e81 49bd
000001c0: 9b55 cdbd f158 7ebb 64df 273d f2d4 8abd
000001d0: dd6e dabd 0b07 e13d ed3b 943c fa68 373c
000001e0: ff35 b13d 1855 67bd f867 d6bd 9ccd ac3d
000001f0: 220f 903a 3123 a6bd 1d66 a7bd 4843 773b
00000200: 486b b63b 67ca bfbb 9ac5 d43a 629c 983d
00000210: 42d0 a83c 1dac 8ebd 9799 553b 3103 79bc
00000220: 0a97 433d ccb4 de3c 62ef 583d a7bc 90b9
00000230: 8724 f13c c491 7e3d d8a3 7abd e027 d03c
00000240: 2e27 69bd ef52 dcbd 4f6a b8bd dee9 113d
00000250: e14d 9e3d b30b 273c
0.044979293 0.056056246 -0.10613226 0.10766776 -0.039339107 -0.10037063 -0.107347555 -0.0068567432
-0.105444826 -0.07260892 0.06471191 0.025677316 0.042592175 0.046654187 -0.02467783 -0.10388694
0.0033792926 -0.067246065 -0.021311078 -0.09828838 -0.07453724 0.06453261 0.06401687 -0.012199566
0.099666506 0.031071415 0.08403368 0.08424229 0.085197166 -0.044326343 0.0066417274 0.05507848
-0.0330836 0.031660076 -0.054639008 0.0686645 -0.039257824 0.025734894 -0.005137857 0.020592803
0.089851774 0.07201059 0.0021600428 0.07394976 -0.06379976 0.09556553 0.05964318 0.011748859
0.060457442 0.012266155 0.05118627 0.034846243 0.052992612 0.019236248 -0.033648517 0.03948078
0.020213267 0.09551368 0.014222131 -0.011517106 -0.06978187 -0.06953599 0.031251326 0.021098912
0.062325813 -0.001585162 0.078800224 -0.05684313 0.10565983 -0.09612178 -0.020320691 -0.07261414
-0.09394783 -0.09450128 0.10630417 -0.0762668 0.09032915 -0.04606064 0.10638537 -0.059938796
-0.10225674 -0.08216191 0.10687926 -0.069733605 0.021310871 0.038253065 -0.030531889 -0.03635001
0.012393998 0.05349337 -0.036669705 -0.09161024 -0.020437855 0.044772908 0.042172004 0.033336584
-0.095943555 0.09956782 -0.04679845 0.045329634 -0.007947978 0.0854139 -0.0081459675 -0.05122526
-0.00739552 0.033447955 0.07345973 0.10039094 -0.070694126 0.0146488035 -0.050231926 -0.04919558
-0.100260936 -0.0038810337 0.040984526 -0.06778897 -0.10665677 0.109876715 0.018094981 0.011194462
0.08652877 -0.056477636 -0.10469049 0.084376544 0.0010990838 -0.08112181 -0.081737734 0.0037729312
0.005566988 -0.0058529857 0.0016233206 0.07451703 0.020607118 -0.06966422 0.0032592767 -0.015198515
0.047751464 0.02718582 0.05296267 -0.00027606377 0.029436363 0.06215073 -0.06119141 0.025409639
-0.05692213 -0.10758006 -0.09004652 0.035623424 0.07729698 0.01019566

lin2.weight f4 [2, 150]
00000000: 46c4 44bd b972 95bd 2b7d 0a3d 9676 a2bd
00000010: e358 843d 2997 803b 584b 7cbd 2fdc 0abd
00000020: a9ae 953d 6c42 5d3d f8cb 2dbd 6732 95bd
00000030: e8ff 4abd 9ab8 27ba 834b 54bd 5de4 243b
00000040: 2ba2 183c 5519 48bc 4f72 0c3d 6e08 413c
00000050: 8603 7bbd 578a a63d 01f7 8dbd 2ca8 eaba
00000060: 160a 5abc ac66 b8bc 1126 95bd 7b43 983d
00000070: 8496 783c 3825 5abd c662 e2b8 4f37 463d
00000080: 5c48 33bd 982f 9bbd 0f6b 7cbd 1479 5dbd
00000090: b75a 3dbd e514 283d 01e7 0abd 97e4 99bc
000000a0: 75ac 92bd 3d00 52bd 4974 94bc b5b6 65bd
000000b0: c156 a6bd d2ea 743d 114e 5cbd 7ced 01bc
000000c0: 28c2 893c 6eef 283d 458d 3a3d 600d 023d
000000d0: 55e4 4c3d 7c36 103d c6ff 423d 00cc b53c
000000e0: 9b94 d53a 085b d5bc 54b6 713c d7cd 923d
000000f0: 2479 bf3c 22c0 a2bd 6413 903b 3944 b6bc
00000100: 64dc f3bc 38b6 8f3d aa0a 7cbd 15ff 0d3d
00000110: 99f5 89bc 2823 c03b 7bf0 31bd 7c2c cebc
00000120: 801a 63bd a2b0 78bd 62cd 2dbd 7531 8d3d
00000130: 5671 a63a 2841 5cbd 595b 97bd 231b f4bc
00000140: 9af4 56bc 25bf 7a3c b715 6fbd 12f5 5cbc
00000150: e3ce 93bd 1c5b a4bd 465a a5bd e89a 5b3d
00000160: 4fe5 0fbd 9509 273c 8235 033d 1b82 91bd
00000170: a293 103c c78a 533c 341a 4e3c b430 993d
00000180: 8744 fdbc f24b 0abd e02b 443d 318e 89bd
00000190: f482 89bd cd6c eabc 3474 943b 2776 11bd
000001a0: e577 bb3c 1ed8 903c 3557 f33c 776e 663d
000001b0: c0c0 a8bc 848b 6ebd d4e7 90bd 4cdf 003c
000001c0: 753a 6339 8200 a5bd f56a 37bd 492d 4f3d
000001d0: f640 a4bd a943 993d b9ac 72bc 0e3f 783d
000001e0: 5c79 403d c9f4 febc 3a07 b13c 88ff 44bc
000001f0: 374c 1ebc 93ee 9b3d 42a6 92bd bdc2 613c
00000200: 5795 2f3d 7d08 59bc 1be7 a53c 2b67 eebc
00000210: e322 193b 7c96 3cbc 7c94 413d ddea 8fbb
00000220: 469f e03c 1608 86bb e49b 403d 4d00 af3c
00000230: d8ac 733d 8cd3 43bd e3f5 8b3d ce2a 663d
00000240: 46cf e93c 011a 563d 352c 793d bd5f cc3c
00000250: 95e7 53bd a743 76bd eee7 853d 9d0a a0bd
00000260: d43f 63bd 95c6 6f3d ef90 4a3d 8555 88bd
00000270: eda4 53bc cf04 8d3d fead 3f3d a923 7f3d
00000280: 0c2f f53c af82 e63b bea5 8e3c 2458 e83c
00000290: 08e3 823d f2c1 703d e794 a2bd d4d9 74bd
000002a0: 92fc a2bd bb47 583d 3bd7 a53d 1ecc 78bd
000002b0: d340 873d 6844 053d 75b2 03bd befc 9fbd
000002c0: b522 94bd cbbc 413d 6415 02bd df69 83bd
000002d0: c82d 2b3d a718 1f3b bebc 553d 7360 19bc
000002e0: 7c3b 47bb efe0 58bd b953 a2bc 1335 9ebd
000002f0: fe39 0f3c d0ce 82bb ca86 3dbd d299 98bd
00000300: 00d9 463d 7ca3 03bd eb46 b5bb 12a9 2e3d
00000310: bd3b 8bbd 4044 943d 0fcd 553d 36f6 813d
00000320: 072e 21bd 434e f13c 0057 a5bd f17c 343d
00000330: 398a 633d b7f9 43bd 223f 743d e2f7 223d
00000340: f989 9cbd 28f0 6e3b 02e5 24bd b890 89bd
00000350: c464 14ba 18f7 3cbd 17ef 193d 4bfc 1ebc
00000360: bead a5bd 7b9b a2bd 0a70 22bc 519c 35bd
00000370: 90d8 f8bb 5621 073d 261f 54bc e234 b93b
00000380: b286 8abd 30a9 6fbd 3a55 9cbd 59ae 3b3c
00000390: f191 973d 3f3d 343d 60e1 7abc c16a a6bc
000003a0: dfc5 a03d a2f3 083d 198f 833d d7d6 90bd
000003b0: ee05 98bd 7857 6c3d cb67 873d 74c2 883d
000003c0: 25e2 a93c 5439 a33d 5b78 5c3d 562b a53c
000003d0: face 8bbd c8f5 803c e18d 6d3d 2736 8c3d
000003e0: dcda 9d3d b057 90bd 33e7 0c3b 9cdb a6bc
000003f0: ff73 9f3d 5dd0 7fbd 5206 d4bc 4368 a2bc
-0.048038743 -0.07297272 0.033810776 -0.07932775 0.06462266 0.0039242697 -0.06159529 -0.03390139
0.073087044 0.054018423 -0.042430848 -0.07285004 -0.049560457 -0.0006398052 -0.051829826 0.002516053
0.009316008 -0.012213071 0.0342887 0.011781795 -0.061282657 0.08131855 -0.06931878 -0.0017902902
-0.013308069 -0.022509895 -0.07282651 0.07434746 0.0151726045 -0.05325815 -0.00010794918 0.04839259
-0.04377018 -0.07577437 -0.061625537 -0.054070547 -0.04622909 0.04103555 -0.03391171 -0.018785758
-0.071618 -0.05126976 -0.018121855 -0.056082446 -0.08122016 0.059794255 -0.053785387 -0.007930156
0.016816214 0.041243963 0.04554488 0.031751037 0.050022442 0.03520821 0.047607206 0.022192001
0.0016294898 -0.026044384 0.014752943 0.07168167 0.023373194 -0.07946803 0.004396843 -0.022249328
-0.029768176 0.07017177 -0.061533608 0.034667093 -0.016840743 0.005863566 -0.04344223 -0.025167696
-0.055445194 -0.060715325 -0.042432196 0.06894199 0.0012698572 -0.053773075 -0.0739047 -0.029798096
-0.013119841 0.0153043615 -0.05837032 -0.013486164 -0.07217195 -0.0802519 -0.08073859 0.053614527
-0.035130795 0.010195156 0.03203345 -0.07104894 0.008824261 0.012911505 0.0125794895 0.074799925
-0.030916465 -0.033763833 0.047893405 -0.06716574 -0.067144305 -0.028616333 0.004530454 -0.03551307
0.022884319 0.017681178 0.02970467 0.05625769 -0.020599723 -0.05823852 -0.07075468 0.007865738
0.00021670184 -0.080567375 -0.044779737 0.050580297 -0.08020203 0.07483608 -0.014811688 0.06060701
0.046990737 -0.031122582 0.021609891 -0.012023814 -0.009661726 0.07613864 -0.071606174 0.013779339
0.04286703 -0.013246653 0.020251801 -0.029101929 0.0023366741 -0.011510488 0.047260746 -0.0043920116
0.027419697 -0.0040903194 0.04702367 0.021362448 0.05949101 -0.04780917 0.068340085 0.056193165
0.028541218 0.052270893 0.060833175 0.024947995 -0.051734526 -0.060123112 0.06538378 -0.07814524
-0.055480793 0.058538992 0.049454626 -0.066569366 -0.012917739 0.06885683 0.04679679 0.062289868
0.02992966 0.0070346217 0.017413016 0.028362341 0.06390959 0.05877871 -0.07938557 -0.05977805
-0.0795833 0.052802783 0.080976926 -0.060741536 0.06604161 0.03253594 -0.03215261 -0.078118786
-0.07233182 0.047299188 -0.03175868 -0.06416678 0.041791707 0.0024276169 0.05218195 -0.009361374
-0.0030400446 -0.05294889 -0.019815313 -0.07724967 0.008741854 -0.003991939 -0.046271123 -0.07451214
0.04854679 -0.032138333 -0.0055321357 0.042641707 -0.067985035 0.0723958 0.052197512 0.06345789
-0.039350536 0.029456263 -0.080732346 0.044064466 0.05555174 -0.04784557 0.05963052 0.03978718
-0.07643504 0.0036459062 -0.04025746 -0.06717056 -0.0005660767 -0.046134084 0.03758153 -0.009703706
-0.08089779 -0.07939812 -0.0099144075 -0.044338528 -0.0075941756 0.032990776 -0.0129468795 0.005652056
-0.06763972 -0.05851096 -0.07633443 0.011455142 0.07400883 0.04400372 -0.015312523 -0.020314576
0.07850241 0.03343547 0.06423778 -0.070722274 -0.07423006 0.057700604 0.06611594 0.06677714
0.020737717 0.07969919 0.053825717 0.020162266 -0.06826587 0.015742198 0.057996634 0.06846266
0.0770776 -0.07047975 0.002150011 -0.02036839 0.077857964 -0.06245457 -0.02588192 -0.019825106

lin2.bias f4 [2]
00000000: c15f 273d 464b b53b
0.040862802 0.005532655
